…
compile model with optimizer:  <tensorflow.python.keras.optimizer_v2.adadelta.Adadelta object at 0x7fa320345390>
Model: "functional_1"
__________________________________________________________________________________________________
Layer (type)                    Output Shape         Param #     Connected to                     
==================================================================================================
inpt (InputLayer)               [(None, 4)]          0                                            
__________________________________________________________________________________________________
dense (Dense)                   (None, 630)          3150        inpt[0][0]                       
__________________________________________________________________________________________________
dense_1 (Dense)                 (None, 315)          198765      dense[0][0]                      
__________________________________________________________________________________________________
dense_2 (Dense)                 (None, 20)           6320        dense_1[0][0]                    
__________________________________________________________________________________________________
dense_3 (Dense)                 (None, 20)           6320        dense_1[0][0]                    
__________________________________________________________________________________________________
dense_4 (Dense)                 (None, 20)           6320        dense_1[0][0]                    
__________________________________________________________________________________________________
dense_5 (Dense)                 (None, 20)           6320        dense_1[0][0]                    
__________________________________________________________________________________________________
dense_6 (Dense)                 (None, 20)           6320        dense_1[0][0]                    
__________________________________________________________________________________________________
dense_7 (Dense)                 (None, 20)           6320        dense_1[0][0]                    
__________________________________________________________________________________________________
dense_8 (Dense)                 (None, 20)           6320        dense_1[0][0]                    
__________________________________________________________________________________________________
dense_9 (Dense)                 (None, 20)           6320        dense_1[0][0]                    
__________________________________________________________________________________________________
dense_10 (Dense)                (None, 20)           6320        dense_1[0][0]                    
__________________________________________________________________________________________________
dense_11 (Dense)                (None, 20)           6320        dense_1[0][0]                    
__________________________________________________________________________________________________
dense_12 (Dense)                (None, 20)           6320        dense_1[0][0]                    
__________________________________________________________________________________________________
dense_13 (Dense)                (None, 20)           6320        dense_1[0][0]                    
__________________________________________________________________________________________________
dense_14 (Dense)                (None, 20)           6320        dense_1[0][0]                    
__________________________________________________________________________________________________
dense_15 (Dense)                (None, 20)           6320        dense_1[0][0]                    
__________________________________________________________________________________________________
dense_16 (Dense)                (None, 20)           6320        dense_1[0][0]                    
__________________________________________________________________________________________________
dense_17 (Dense)                (None, 20)           6320        dense_1[0][0]                    
__________________________________________________________________________________________________
dense_18 (Dense)                (None, 20)           6320        dense_1[0][0]                    
__________________________________________________________________________________________________
dense_19 (Dense)                (None, 20)           6320        dense_1[0][0]                    
__________________________________________________________________________________________________
dense_20 (Dense)                (None, 20)           6320        dense_1[0][0]                    
__________________________________________________________________________________________________
dense_21 (Dense)                (None, 20)           6320        dense_1[0][0]                    
__________________________________________________________________________________________________
dense_22 (Dense)                (None, 20)           6320        dense_1[0][0]                    
__________________________________________________________________________________________________
dense_23 (Dense)                (None, 15)           315         dense_2[0][0]                    
__________________________________________________________________________________________________
dense_24 (Dense)                (None, 15)           315         dense_3[0][0]                    
__________________________________________________________________________________________________
dense_25 (Dense)                (None, 15)           315         dense_4[0][0]                    
__________________________________________________________________________________________________
dense_26 (Dense)                (None, 15)           315         dense_5[0][0]                    
__________________________________________________________________________________________________
dense_27 (Dense)                (None, 15)           315         dense_6[0][0]                    
__________________________________________________________________________________________________
dense_28 (Dense)                (None, 15)           315         dense_7[0][0]                    
__________________________________________________________________________________________________
dense_29 (Dense)                (None, 15)           315         dense_8[0][0]                    
__________________________________________________________________________________________________
dense_30 (Dense)                (None, 15)           315         dense_9[0][0]                    
__________________________________________________________________________________________________
dense_31 (Dense)                (None, 15)           315         dense_10[0][0]                   
__________________________________________________________________________________________________
dense_32 (Dense)                (None, 15)           315         dense_11[0][0]                   
__________________________________________________________________________________________________
dense_33 (Dense)                (None, 15)           315         dense_12[0][0]                   
__________________________________________________________________________________________________
dense_34 (Dense)                (None, 15)           315         dense_13[0][0]                   
__________________________________________________________________________________________________
dense_35 (Dense)                (None, 15)           315         dense_14[0][0]                   
__________________________________________________________________________________________________
dense_36 (Dense)                (None, 15)           315         dense_15[0][0]                   
__________________________________________________________________________________________________
dense_37 (Dense)                (None, 15)           315         dense_16[0][0]                   
__________________________________________________________________________________________________
dense_38 (Dense)                (None, 15)           315         dense_17[0][0]                   
__________________________________________________________________________________________________
dense_39 (Dense)                (None, 15)           315         dense_18[0][0]                   
__________________________________________________________________________________________________
dense_40 (Dense)                (None, 15)           315         dense_19[0][0]                   
__________________________________________________________________________________________________
dense_41 (Dense)                (None, 15)           315         dense_20[0][0]                   
__________________________________________________________________________________________________
dense_42 (Dense)                (None, 15)           315         dense_21[0][0]                   
__________________________________________________________________________________________________
dense_43 (Dense)                (None, 15)           315         dense_22[0][0]                   
__________________________________________________________________________________________________
dense_44 (Dense)                (None, 10)           160         dense_23[0][0]                   
__________________________________________________________________________________________________
dense_45 (Dense)                (None, 10)           160         dense_24[0][0]                   
__________________________________________________________________________________________________
dense_46 (Dense)                (None, 10)           160         dense_25[0][0]                   
__________________________________________________________________________________________________
dense_47 (Dense)                (None, 10)           160         dense_26[0][0]                   
__________________________________________________________________________________________________
dense_48 (Dense)                (None, 10)           160         dense_27[0][0]                   
__________________________________________________________________________________________________
dense_49 (Dense)                (None, 10)           160         dense_28[0][0]                   
__________________________________________________________________________________________________
dense_50 (Dense)                (None, 10)           160         dense_29[0][0]                   
__________________________________________________________________________________________________
dense_51 (Dense)                (None, 10)           160         dense_30[0][0]                   
__________________________________________________________________________________________________
dense_52 (Dense)                (None, 10)           160         dense_31[0][0]                   
__________________________________________________________________________________________________
dense_53 (Dense)                (None, 10)           160         dense_32[0][0]                   
__________________________________________________________________________________________________
dense_54 (Dense)                (None, 10)           160         dense_33[0][0]                   
__________________________________________________________________________________________________
dense_55 (Dense)                (None, 10)           160         dense_34[0][0]                   
__________________________________________________________________________________________________
dense_56 (Dense)                (None, 10)           160         dense_35[0][0]                   
__________________________________________________________________________________________________
dense_57 (Dense)                (None, 10)           160         dense_36[0][0]                   
__________________________________________________________________________________________________
dense_58 (Dense)                (None, 10)           160         dense_37[0][0]                   
__________________________________________________________________________________________________
dense_59 (Dense)                (None, 10)           160         dense_38[0][0]                   
__________________________________________________________________________________________________
dense_60 (Dense)                (None, 10)           160         dense_39[0][0]                   
__________________________________________________________________________________________________
dense_61 (Dense)                (None, 10)           160         dense_40[0][0]                   
__________________________________________________________________________________________________
dense_62 (Dense)                (None, 10)           160         dense_41[0][0]                   
__________________________________________________________________________________________________
dense_63 (Dense)                (None, 10)           160         dense_42[0][0]                   
__________________________________________________________________________________________________
dense_64 (Dense)                (None, 10)           160         dense_43[0][0]                   
__________________________________________________________________________________________________
dense_65 (Dense)                (None, 1)            11          dense_44[0][0]                   
__________________________________________________________________________________________________
dense_66 (Dense)                (None, 1)            11          dense_45[0][0]                   
__________________________________________________________________________________________________
dense_67 (Dense)                (None, 1)            11          dense_46[0][0]                   
__________________________________________________________________________________________________
dense_68 (Dense)                (None, 1)            11          dense_47[0][0]                   
__________________________________________________________________________________________________
dense_69 (Dense)                (None, 1)            11          dense_48[0][0]                   
__________________________________________________________________________________________________
dense_70 (Dense)                (None, 1)            11          dense_49[0][0]                   
__________________________________________________________________________________________________
dense_71 (Dense)                (None, 1)            11          dense_50[0][0]                   
__________________________________________________________________________________________________
dense_72 (Dense)                (None, 1)            11          dense_51[0][0]                   WARNING:tensorflow:From /usr/local/lib64/python3.6/site-packages/tensorflow/python/data/ops/multi_device_iterator_ops.py:601: get_next_as_optional (from tensorflow.python.data.ops.iterator_ops) is deprecated and will be removed in a future version.
Instructions for updating:
Use `tf.data.Iterator.get_next_as_optional()` instead.
2023-10-27 16:54:50.117201: I tensorflow/stream_executor/platform/default/dso_loader.cc:48] Successfully opened dynamic library libcublas.so.10

__________________________________________________________________________________________________
dense_73 (Dense)                (None, 1)            11          dense_52[0][0]                   
__________________________________________________________________________________________________
dense_74 (Dense)                (None, 1)            11          dense_53[0][0]                   
__________________________________________________________________________________________________
dense_75 (Dense)                (None, 1)            11          dense_54[0][0]                   
__________________________________________________________________________________________________
dense_76 (Dense)                (None, 1)            11          dense_55[0][0]                   
__________________________________________________________________________________________________
dense_77 (Dense)                (None, 1)            11          dense_56[0][0]                   
__________________________________________________________________________________________________
dense_78 (Dense)                (None, 1)            11          dense_57[0][0]                   
__________________________________________________________________________________________________
dense_79 (Dense)                (None, 1)            11          dense_58[0][0]                   
__________________________________________________________________________________________________
dense_80 (Dense)                (None, 1)            11          dense_59[0][0]                   
__________________________________________________________________________________________________
dense_81 (Dense)                (None, 1)            11          dense_60[0][0]                   
__________________________________________________________________________________________________
dense_82 (Dense)                (None, 1)            11          dense_61[0][0]                   
__________________________________________________________________________________________________
dense_83 (Dense)                (None, 1)            11          dense_62[0][0]                   
__________________________________________________________________________________________________
dense_84 (Dense)                (None, 1)            11          dense_63[0][0]                   
__________________________________________________________________________________________________
dense_85 (Dense)                (None, 1)            11          dense_64[0][0]                   
__________________________________________________________________________________________________
concatenate (Concatenate)       (None, 21)           0           dense_65[0][0]                   
                                                                 dense_66[0][0]                   
                                                                 dense_67[0][0]                   
                                                                 dense_68[0][0]                   
                                                                 dense_69[0][0]                   
…
compile model with optimizer:  <tensorflow.python.keras.optimizer_v2.adadelta.Adadelta object at 0x7fa2002356d8>
Model: "functional_1"
__________________________________________________________________________________________________
Layer (type)                    Output Shape         Param #     Connected to                     
==================================================================================================
inpt (InputLayer)               [(None, 5)]          0                                            
__________________________________________________________________________________________________
dense (Dense)                   (None, 630)          3780        inpt[0][0]                       
__________________________________________________________________________________________________
dense_1 (Dense)                 (None, 315)          198765      dense[0][0]                      
__________________________________________________________________________________________________
dense_2 (Dense)                 (None, 20)           6320        dense_1[0][0]                    
__________________________________________________________________________________________________
dense_3 (Dense)                 (None, 20)           6320        dense_1[0][0]                    
__________________________________________________________________________________________________
dense_4 (Dense)                 (None, 20)           6320        dense_1[0][0]                    
__________________________________________________________________________________________________
dense_5 (Dense)                 (None, 20)           6320        dense_1[0][0]                    
__________________________________________________________________________________________________
dense_6 (Dense)                 (None, 20)           6320        dense_1[0][0]                    
__________________________________________________________________________________________________
dense_7 (Dense)                 (None, 20)           6320        dense_1[0][0]                    
__________________________________________________________________________________________________
dense_8 (Dense)                 (None, 20)           6320        dense_1[0][0]                    
__________________________________________________________________________________________________
dense_9 (Dense)                 (None, 20)           6320        dense_1[0][0]                    
__________________________________________________________________________________________________
dense_10 (Dense)                (None, 20)           6320        dense_1[0][0]                    
__________________________________________________________________________________________________
dense_11 (Dense)                (None, 20)           6320        dense_1[0][0]                    
__________________________________________________________________________________________________
dense_12 (Dense)                (None, 20)           6320        dense_1[0][0]                    
__________________________________________________________________________________________________
dense_13 (Dense)                (None, 20)           6320        dense_1[0][0]                    
__________________________________________________________________________________________________
dense_14 (Dense)                (None, 20)           6320        dense_1[0][0]                    
__________________________________________________________________________________________________
dense_15 (Dense)                (None, 20)           6320        dense_1[0][0]                    
__________________________________________________________________________________________________
dense_16 (Dense)                (None, 20)           6320        dense_1[0][0]                    
__________________________________________________________________________________________________
dense_17 (Dense)                (None, 20)           6320        dense_1[0][0]                    
__________________________________________________________________________________________________
dense_18 (Dense)                (None, 20)           6320        dense_1[0][0]                    
__________________________________________________________________________________________________
dense_19 (Dense)                (None, 20)           6320        dense_1[0][0]                    
__________________________________________________________________________________________________
dense_20 (Dense)                (None, 20)           6320        dense_1[0][0]                    
__________________________________________________________________________________________________
dense_21 (Dense)                (None, 20)           6320        dense_1[0][0]                    
__________________________________________________________________________________________________
dense_22 (Dense)                (None, 20)           6320        dense_1[0][0]                    
__________________________________________________________________________________________________
dense_23 (Dense)                (None, 15)           315         dense_2[0][0]                    
__________________________________________________________________________________________________
dense_24 (Dense)                (None, 15)           315         dense_3[0][0]                    
__________________________________________________________________________________________________
dense_25 (Dense)                (None, 15)           315         dense_4[0][0]                    
__________________________________________________________________________________________________
dense_26 (Dense)                (None, 15)           315         dense_5[0][0]                    
__________________________________________________________________________________________________
dense_27 (Dense)                (None, 15)           315         dense_6[0][0]                    
__________________________________________________________________________________________________
dense_28 (Dense)                (None, 15)           315         dense_7[0][0]                    
__________________________________________________________________________________________________
dense_29 (Dense)                (None, 15)           315         dense_8[0][0]                    
__________________________________________________________________________________________________
dense_30 (Dense)                (None, 15)           315         dense_9[0][0]                    
__________________________________________________________________________________________________
dense_31 (Dense)                (None, 15)           315         dense_10[0][0]                   
__________________________________________________________________________________________________
dense_32 (Dense)                (None, 15)           315         dense_11[0][0]                   
__________________________________________________________________________________________________
dense_33 (Dense)                (None, 15)           315         dense_12[0][0]                   
__________________________________________________________________________________________________
dense_34 (Dense)                (None, 15)           315         dense_13[0][0]                   
__________________________________________________________________________________________________
dense_35 (Dense)                (None, 15)           315         dense_14[0][0]                   
__________________________________________________________________________________________________
dense_36 (Dense)                (None, 15)           315         dense_15[0][0]                   
__________________________________________________________________________________________________
dense_37 (Dense)                (None, 15)           315         dense_16[0][0]                   
__________________________________________________________________________________________________
dense_38 (Dense)                (None, 15)           315         dense_17[0][0]                   
__________________________________________________________________________________________________
dense_39 (Dense)                (None, 15)           315         dense_18[0][0]                   
__________________________________________________________________________________________________
dense_40 (Dense)                (None, 15)           315         dense_19[0][0]                   
__________________________________________________________________________________________________
dense_41 (Dense)                (None, 15)           315         dense_20[0][0]                   
__________________________________________________________________________________________________
dense_42 (Dense)                (None, 15)           315         dense_21[0][0]                   
__________________________________________________________________________________________________
dense_43 (Dense)                (None, 15)           315         dense_22[0][0]                   
__________________________________________________________________________________________________
dense_44 (Dense)                (None, 10)           160         dense_23[0][0]                   
__________________________________________________________________________________________________
dense_45 (Dense)                (None, 10)           160         dense_24[0][0]                   
__________________________________________________________________________________________________
dense_46 (Dense)                (None, 10)           160         dense_25[0][0]                   
__________________________________________________________________________________________________
dense_47 (Dense)                (None, 10)           160         dense_26[0][0]                   
__________________________________________________________________________________________________
dense_48 (Dense)                (None, 10)           160         dense_27[0][0]                   
__________________________________________________________________________________________________
dense_49 (Dense)                (None, 10)           160         dense_28[0][0]                   
__________________________________________________________________________________________________
dense_50 (Dense)                (None, 10)           160         dense_29[0][0]                   
__________________________________________________________________________________________________
dense_51 (Dense)                (None, 10)           160         dense_30[0][0]                   
__________________________________________________________________________________________________
dense_52 (Dense)                (None, 10)           160         dense_31[0][0]                   
__________________________________________________________________________________________________
dense_53 (Dense)                (None, 10)           160         dense_32[0][0]                   
__________________________________________________________________________________________________
dense_54 (Dense)                (None, 10)           160         dense_33[0][0]                   
__________________________________________________________________________________________________
dense_55 (Dense)                (None, 10)           160         dense_34[0][0]                   
__________________________________________________________________________________________________
dense_56 (Dense)                (None, 10)           160         dense_35[0][0]                   
__________________________________________________________________________________________________
dense_57 (Dense)                (None, 10)           160         dense_36[0][0]                   
__________________________________________________________________________________________________
dense_58 (Dense)                (None, 10)           160         dense_37[0][0]                   
__________________________________________________________________________________________________
dense_59 (Dense)                (None, 10)           160         dense_38[0][0]                   
__________________________________________________________________________________________________
dense_60 (Dense)                (None, 10)           160         dense_39[0][0]                   
__________________________________________________________________________________________________
dense_61 (Dense)                (None, 10)           160         dense_40[0][0]                   
__________________________________________________________________________________________________
dense_62 (Dense)                (None, 10)           160         dense_41[0][0]                   
__________________________________________________________________________________________________
dense_63 (Dense)                (None, 10)           160         dense_42[0][0]                   
__________________________________________________________________________________________________
dense_64 (Dense)                (None, 10)           160         dense_43[0][0]                   
__________________________________________________________________________________________________
dense_65 (Dense)                (None, 1)            11          dense_44[0][0]                   
__________________________________________________________________________________________________
dense_66 (Dense)                (None, 1)            11          dense_45[0][0]                   
__________________________________________________________________________________________________
dense_67 (Dense)                (None, 1)            11          dense_46[0][0]                   
__________________________________________________________________________________________________
dense_68 (Dense)                (None, 1)            11          dense_47[0][0]                   
__________________________________________________________________________________________________
dense_69 (Dense)                (None, 1)            11          dense_48[0][0]                   
__________________________________________________________________________________________________
dense_70 (Dense)                (None, 1)            11          dense_49[0][0]                   
__________________________________________________________________________________________________
dense_71 (Dense)                (None, 1)            11          dense_50[0][0]                   
__________________________________________________________________________________________________
dense_72 (Dense)                (None, 1)            11          dense_51[0][0]                   
__________________________________________________________________________________________________
dense_73 (Dense)                (None, 1)            11          dense_52[0][0]                   
__________________________________________________________________________________________________
dense_74 (Dense)                (None, 1)            11          dense_53[0][0]                   
__________________________________________________________________________________________________
dense_75 (Dense)                (None, 1)            11          dense_54[0][0]                   
__________________________________________________________________________________________________
dense_76 (Dense)                (None, 1)            11          dense_55[0][0]                   
__________________________________________________________________________________________________
dense_77 (Dense)                (None, 1)            11          dense_56[0][0]                   
__________________________________________________________________________________________________
dense_78 (Dense)                (None, 1)            11          dense_57[0][0]                   
__________________________________________________________________________________________________
dense_79 (Dense)                (None, 1)            11          dense_58[0][0]                   
__________________________________________________________________________________________________
dense_80 (Dense)                (None, 1)            11          dense_59[0][0]                   
__________________________________________________________________________________________________
dense_81 (Dense)                (None, 1)            11          dense_60[0][0]                   
__________________________________________________________________________________________________
dense_82 (Dense)                (None, 1)            11          dense_61[0][0]                   
__________________________________________________________________________________________________
dense_83 (Dense)                (None, 1)            11          dense_62[0][0]                   
__________________________________________________________________________________________________
dense_84 (Dense)                (None, 1)            11          dense_63[0][0]                   
__________________________________________________________________________________________________
dense_85 (Dense)                (None, 1)            11          dense_64[0][0]                   
__________________________________________________________________________________________________
concatenate (Concatenate)       (None, 21)           0           dense_65[0][0]                   
                                                                 dense_66[0][0]                   
                                                                 dense_67[0][0]                   
                                                                 dense_68[0][0]                   
                                                                 dense_69[0][0]                   
…
compile model with optimizer:  <tensorflow.python.keras.optimizer_v2.adadelta.Adadelta object at 0x7fa108b86be0>
Model: "functional_1"
__________________________________________________________________________________________________
Layer (type)                    Output Shape         Param #     Connected to                     
==================================================================================================
inpt (InputLayer)               [(None, 6)]          0                                            
__________________________________________________________________________________________________
dense (Dense)                   (None, 630)          4410        inpt[0][0]                       
__________________________________________________________________________________________________
dense_1 (Dense)                 (None, 315)          198765      dense[0][0]                      
__________________________________________________________________________________________________
dense_2 (Dense)                 (None, 20)           6320        dense_1[0][0]                    
__________________________________________________________________________________________________
dense_3 (Dense)                 (None, 20)           6320        dense_1[0][0]                    
__________________________________________________________________________________________________
dense_4 (Dense)                 (None, 20)           6320        dense_1[0][0]                    
__________________________________________________________________________________________________
dense_5 (Dense)                 (None, 20)           6320        dense_1[0][0]                    
__________________________________________________________________________________________________
dense_6 (Dense)                 (None, 20)           6320        dense_1[0][0]                    
__________________________________________________________________________________________________
dense_7 (Dense)                 (None, 20)           6320        dense_1[0][0]                    
__________________________________________________________________________________________________
dense_8 (Dense)                 (None, 20)           6320        dense_1[0][0]                    
__________________________________________________________________________________________________
dense_9 (Dense)                 (None, 20)           6320        dense_1[0][0]                    
__________________________________________________________________________________________________
dense_10 (Dense)                (None, 20)           6320        dense_1[0][0]                    
__________________________________________________________________________________________________
dense_11 (Dense)                (None, 20)           6320        dense_1[0][0]                    
__________________________________________________________________________________________________
dense_12 (Dense)                (None, 20)           6320        dense_1[0][0]                    
__________________________________________________________________________________________________
dense_13 (Dense)                (None, 20)           6320        dense_1[0][0]                    
__________________________________________________________________________________________________
dense_14 (Dense)                (None, 20)           6320        dense_1[0][0]                    
__________________________________________________________________________________________________
dense_15 (Dense)                (None, 20)           6320        dense_1[0][0]                    
__________________________________________________________________________________________________
dense_16 (Dense)                (None, 20)           6320        dense_1[0][0]                    
__________________________________________________________________________________________________
dense_17 (Dense)                (None, 20)           6320        dense_1[0][0]                    
__________________________________________________________________________________________________
dense_18 (Dense)                (None, 20)           6320        dense_1[0][0]                    
__________________________________________________________________________________________________
dense_19 (Dense)                (None, 20)           6320        dense_1[0][0]                    
__________________________________________________________________________________________________
dense_20 (Dense)                (None, 20)           6320        dense_1[0][0]                    
__________________________________________________________________________________________________
dense_21 (Dense)                (None, 20)           6320        dense_1[0][0]                    
__________________________________________________________________________________________________
dense_22 (Dense)                (None, 20)           6320        dense_1[0][0]                    
__________________________________________________________________________________________________
dense_23 (Dense)                (None, 15)           315         dense_2[0][0]                    
__________________________________________________________________________________________________
dense_24 (Dense)                (None, 15)           315         dense_3[0][0]                    
__________________________________________________________________________________________________
dense_25 (Dense)                (None, 15)           315         dense_4[0][0]                    
__________________________________________________________________________________________________
dense_26 (Dense)                (None, 15)           315         dense_5[0][0]                    
__________________________________________________________________________________________________
dense_27 (Dense)                (None, 15)           315         dense_6[0][0]                    
__________________________________________________________________________________________________
dense_28 (Dense)                (None, 15)           315         dense_7[0][0]                    
__________________________________________________________________________________________________
dense_29 (Dense)                (None, 15)           315         dense_8[0][0]                    
__________________________________________________________________________________________________
dense_30 (Dense)                (None, 15)           315         dense_9[0][0]                    
__________________________________________________________________________________________________
dense_31 (Dense)                (None, 15)           315         dense_10[0][0]                   
__________________________________________________________________________________________________
dense_32 (Dense)                (None, 15)           315         dense_11[0][0]                   
__________________________________________________________________________________________________
dense_33 (Dense)                (None, 15)           315         dense_12[0][0]                   
__________________________________________________________________________________________________
dense_34 (Dense)                (None, 15)           315         dense_13[0][0]                   
__________________________________________________________________________________________________
dense_35 (Dense)                (None, 15)           315         dense_14[0][0]                   
__________________________________________________________________________________________________
dense_36 (Dense)                (None, 15)           315         dense_15[0][0]                   
__________________________________________________________________________________________________
dense_37 (Dense)                (None, 15)           315         dense_16[0][0]                   
__________________________________________________________________________________________________
dense_38 (Dense)                (None, 15)           315         dense_17[0][0]                   
__________________________________________________________________________________________________
dense_39 (Dense)                (None, 15)           315         dense_18[0][0]                   
__________________________________________________________________________________________________
dense_40 (Dense)                (None, 15)           315         dense_19[0][0]                   
__________________________________________________________________________________________________
dense_41 (Dense)                (None, 15)           315         dense_20[0][0]                   
__________________________________________________________________________________________________
dense_42 (Dense)                (None, 15)           315         dense_21[0][0]                   
__________________________________________________________________________________________________
dense_43 (Dense)                (None, 15)           315         dense_22[0][0]                   
__________________________________________________________________________________________________
dense_44 (Dense)                (None, 10)           160         dense_23[0][0]                   
__________________________________________________________________________________________________
dense_45 (Dense)                (None, 10)           160         dense_24[0][0]                   
__________________________________________________________________________________________________
dense_46 (Dense)                (None, 10)           160         dense_25[0][0]                   
__________________________________________________________________________________________________
dense_47 (Dense)                (None, 10)           160         dense_26[0][0]                   
__________________________________________________________________________________________________
dense_48 (Dense)                (None, 10)           160         dense_27[0][0]                   
__________________________________________________________________________________________________
dense_49 (Dense)                (None, 10)           160         dense_28[0][0]                   
__________________________________________________________________________________________________
dense_50 (Dense)                (None, 10)           160         dense_29[0][0]                   
__________________________________________________________________________________________________
dense_51 (Dense)                (None, 10)           160         dense_30[0][0]                   
__________________________________________________________________________________________________
dense_52 (Dense)                (None, 10)           160         dense_31[0][0]                   
__________________________________________________________________________________________________
dense_53 (Dense)                (None, 10)           160         dense_32[0][0]                   
__________________________________________________________________________________________________
dense_54 (Dense)                (None, 10)           160         dense_33[0][0]                   
__________________________________________________________________________________________________
dense_55 (Dense)                (None, 10)           160         dense_34[0][0]                   
__________________________________________________________________________________________________
dense_56 (Dense)                (None, 10)           160         dense_35[0][0]                   
__________________________________________________________________________________________________
dense_57 (Dense)                (None, 10)           160         dense_36[0][0]                   
__________________________________________________________________________________________________
dense_58 (Dense)                (None, 10)           160         dense_37[0][0]                   
__________________________________________________________________________________________________
dense_59 (Dense)                (None, 10)           160         dense_38[0][0]                   
__________________________________________________________________________________________________
dense_60 (Dense)                (None, 10)           160         dense_39[0][0]                   
__________________________________________________________________________________________________
dense_61 (Dense)                (None, 10)           160         dense_40[0][0]                   
__________________________________________________________________________________________________
dense_62 (Dense)                (None, 10)           160         dense_41[0][0]                   
__________________________________________________________________________________________________
dense_63 (Dense)                (None, 10)           160         dense_42[0][0]                   
__________________________________________________________________________________________________
dense_64 (Dense)                (None, 10)           160         dense_43[0][0]                   
__________________________________________________________________________________________________
dense_65 (Dense)                (None, 1)            11          dense_44[0][0]                   
__________________________________________________________________________________________________
dense_66 (Dense)                (None, 1)            11          dense_45[0][0]                   
__________________________________________________________________________________________________
dense_67 (Dense)                (None, 1)            11          dense_46[0][0]                   
__________________________________________________________________________________________________
dense_68 (Dense)                (None, 1)            11          dense_47[0][0]                   
__________________________________________________________________________________________________
dense_69 (Dense)                (None, 1)            11          dense_48[0][0]                   
__________________________________________________________________________________________________
dense_70 (Dense)                (None, 1)            11          dense_49[0][0]                   
__________________________________________________________________________________________________
dense_71 (Dense)                (None, 1)            11          dense_50[0][0]                   
__________________________________________________________________________________________________
dense_72 (Dense)                (None, 1)            11          dense_51[0][0]                   
__________________________________________________________________________________________________
dense_73 (Dense)                (None, 1)            11          dense_52[0][0]                   
__________________________________________________________________________________________________
dense_74 (Dense)                (None, 1)            11          dense_53[0][0]                   
__________________________________________________________________________________________________
dense_75 (Dense)                (None, 1)            11          dense_54[0][0]                   3 Physical GPUs, 3 Logical GPUs
3 Physical GPUs, 3 Logical GPUs
3 Physical GPUs, 3 Logical GPUs
3 Physical GPUs, 3 Logical GPUs
3 Physical GPUs, 3 Logical GPUs
3 Physical GPUs, 3 Logical GPUs
3 Physical GPUs, 3 Logical GPUs

__________________________________________________________________________________________________
dense_76 (Dense)                (None, 1)            11          dense_55[0][0]                   
__________________________________________________________________________________________________
dense_77 (Dense)                (None, 1)            11          dense_56[0][0]                   
__________________________________________________________________________________________________
dense_78 (Dense)                (None, 1)            11          dense_57[0][0]                   
__________________________________________________________________________________________________
dense_79 (Dense)                (None, 1)            11          dense_58[0][0]                   
__________________________________________________________________________________________________
dense_80 (Dense)                (None, 1)            11          dense_59[0][0]                   
__________________________________________________________________________________________________
dense_81 (Dense)                (None, 1)            11          dense_60[0][0]                   
__________________________________________________________________________________________________
dense_82 (Dense)                (None, 1)            11          dense_61[0][0]                   
__________________________________________________________________________________________________
dense_83 (Dense)                (None, 1)            11          dense_62[0][0]                   
__________________________________________________________________________________________________
dense_84 (Dense)                (None, 1)            11          dense_63[0][0]                   
__________________________________________________________________________________________________
dense_85 (Dense)                (None, 1)            11          dense_64[0][0]                   
__________________________________________________________________________________________________
concatenate (Concatenate)       (None, 21)           0           dense_65[0][0]                   
                                                                 dense_66[0][0]                   
                                                                 dense_67[0][0]                   
                                                                 dense_68[0][0]                   
                                                                 dense_69[0][0]                   
…
compile model with optimizer:  <tensorflow.python.keras.optimizer_v2.adadelta.Adadelta object at 0x7fa2bc3ea7b8>
Model: "functional_1"
__________________________________________________________________________________________________
Layer (type)                    Output Shape         Param #     Connected to                     
==================================================================================================
inpt (InputLayer)               [(None, 7)]          0                                            
__________________________________________________________________________________________________
dense (Dense)                   (None, 630)          5040        inpt[0][0]                       
__________________________________________________________________________________________________
dense_1 (Dense)                 (None, 315)          198765      dense[0][0]                      
__________________________________________________________________________________________________
dense_2 (Dense)                 (None, 20)           6320        dense_1[0][0]                    
__________________________________________________________________________________________________
dense_3 (Dense)                 (None, 20)           6320        dense_1[0][0]                    
__________________________________________________________________________________________________
dense_4 (Dense)                 (None, 20)           6320        dense_1[0][0]                    
__________________________________________________________________________________________________
dense_5 (Dense)                 (None, 20)           6320        dense_1[0][0]                    
__________________________________________________________________________________________________
dense_6 (Dense)                 (None, 20)           6320        dense_1[0][0]                    
__________________________________________________________________________________________________
dense_7 (Dense)                 (None, 20)           6320        dense_1[0][0]                    
__________________________________________________________________________________________________
dense_8 (Dense)                 (None, 20)           6320        dense_1[0][0]                    
__________________________________________________________________________________________________
dense_9 (Dense)                 (None, 20)           6320        dense_1[0][0]                    
__________________________________________________________________________________________________
dense_10 (Dense)                (None, 20)           6320        dense_1[0][0]                    
__________________________________________________________________________________________________
dense_11 (Dense)                (None, 20)           6320        dense_1[0][0]                    
__________________________________________________________________________________________________
dense_12 (Dense)                (None, 20)           6320        dense_1[0][0]                    
__________________________________________________________________________________________________
dense_13 (Dense)                (None, 20)           6320        dense_1[0][0]                    
__________________________________________________________________________________________________
dense_14 (Dense)                (None, 20)           6320        dense_1[0][0]                    
__________________________________________________________________________________________________
dense_15 (Dense)                (None, 20)           6320        dense_1[0][0]                    
__________________________________________________________________________________________________
dense_16 (Dense)                (None, 20)           6320        dense_1[0][0]                    
__________________________________________________________________________________________________
dense_17 (Dense)                (None, 20)           6320        dense_1[0][0]                    
__________________________________________________________________________________________________
dense_18 (Dense)                (None, 20)           6320        dense_1[0][0]                    
__________________________________________________________________________________________________
dense_19 (Dense)                (None, 20)           6320        dense_1[0][0]                    
__________________________________________________________________________________________________
dense_20 (Dense)                (None, 20)           6320        dense_1[0][0]                    
__________________________________________________________________________________________________
dense_21 (Dense)                (None, 20)           6320        dense_1[0][0]                    
__________________________________________________________________________________________________
dense_22 (Dense)                (None, 20)           6320        dense_1[0][0]                    
__________________________________________________________________________________________________
dense_23 (Dense)                (None, 15)           315         dense_2[0][0]                    
__________________________________________________________________________________________________
dense_24 (Dense)                (None, 15)           315         dense_3[0][0]                    
__________________________________________________________________________________________________
dense_25 (Dense)                (None, 15)           315         dense_4[0][0]                    
__________________________________________________________________________________________________
dense_26 (Dense)                (None, 15)           315         dense_5[0][0]                    
__________________________________________________________________________________________________
dense_27 (Dense)                (None, 15)           315         dense_6[0][0]                    
__________________________________________________________________________________________________
dense_28 (Dense)                (None, 15)           315         dense_7[0][0]                    
__________________________________________________________________________________________________
dense_29 (Dense)                (None, 15)           315         dense_8[0][0]                    
__________________________________________________________________________________________________
dense_30 (Dense)                (None, 15)           315         dense_9[0][0]                    
__________________________________________________________________________________________________
dense_31 (Dense)                (None, 15)           315         dense_10[0][0]                   
__________________________________________________________________________________________________
dense_32 (Dense)                (None, 15)           315         dense_11[0][0]                   
__________________________________________________________________________________________________
dense_33 (Dense)                (None, 15)           315         dense_12[0][0]                   
__________________________________________________________________________________________________
dense_34 (Dense)                (None, 15)           315         dense_13[0][0]                   
__________________________________________________________________________________________________
dense_35 (Dense)                (None, 15)           315         dense_14[0][0]                   
__________________________________________________________________________________________________
dense_36 (Dense)                (None, 15)           315         dense_15[0][0]                   
__________________________________________________________________________________________________
dense_37 (Dense)                (None, 15)           315         dense_16[0][0]                   
__________________________________________________________________________________________________
dense_38 (Dense)                (None, 15)           315         dense_17[0][0]                   
__________________________________________________________________________________________________
dense_39 (Dense)                (None, 15)           315         dense_18[0][0]                   
__________________________________________________________________________________________________
dense_40 (Dense)                (None, 15)           315         dense_19[0][0]                   
__________________________________________________________________________________________________
dense_41 (Dense)                (None, 15)           315         dense_20[0][0]                   
__________________________________________________________________________________________________
dense_42 (Dense)                (None, 15)           315         dense_21[0][0]                   
__________________________________________________________________________________________________
dense_43 (Dense)                (None, 15)           315         dense_22[0][0]                   
__________________________________________________________________________________________________
dense_44 (Dense)                (None, 10)           160         dense_23[0][0]                   
__________________________________________________________________________________________________
dense_45 (Dense)                (None, 10)           160         dense_24[0][0]                   
__________________________________________________________________________________________________
dense_46 (Dense)                (None, 10)           160         dense_25[0][0]                   
__________________________________________________________________________________________________
dense_47 (Dense)                (None, 10)           160         dense_26[0][0]                   
__________________________________________________________________________________________________
dense_48 (Dense)                (None, 10)           160         dense_27[0][0]                   
__________________________________________________________________________________________________
dense_49 (Dense)                (None, 10)           160         dense_28[0][0]                   
__________________________________________________________________________________________________
dense_50 (Dense)                (None, 10)           160         dense_29[0][0]                   
__________________________________________________________________________________________________
dense_51 (Dense)                (None, 10)           160         dense_30[0][0]                   
__________________________________________________________________________________________________
dense_52 (Dense)                (None, 10)           160         dense_31[0][0]                   
__________________________________________________________________________________________________
dense_53 (Dense)                (None, 10)           160         dense_32[0][0]                   
__________________________________________________________________________________________________
dense_54 (Dense)                (None, 10)           160         dense_33[0][0]                   
__________________________________________________________________________________________________
dense_55 (Dense)                (None, 10)           160         dense_34[0][0]                   
__________________________________________________________________________________________________
dense_56 (Dense)                (None, 10)           160         dense_35[0][0]                   
__________________________________________________________________________________________________
dense_57 (Dense)                (None, 10)           160         dense_36[0][0]                   
__________________________________________________________________________________________________
dense_58 (Dense)                (None, 10)           160         dense_37[0][0]                   
__________________________________________________________________________________________________
dense_59 (Dense)                (None, 10)           160         dense_38[0][0]                   
__________________________________________________________________________________________________
dense_60 (Dense)                (None, 10)           160         dense_39[0][0]                   
__________________________________________________________________________________________________
dense_61 (Dense)                (None, 10)           160         dense_40[0][0]                   
__________________________________________________________________________________________________
dense_62 (Dense)                (None, 10)           160         dense_41[0][0]                   
__________________________________________________________________________________________________
dense_63 (Dense)                (None, 10)           160         dense_42[0][0]                   
__________________________________________________________________________________________________
dense_64 (Dense)                (None, 10)           160         dense_43[0][0]                   
__________________________________________________________________________________________________
dense_65 (Dense)                (None, 1)            11          dense_44[0][0]                   
__________________________________________________________________________________________________
dense_66 (Dense)                (None, 1)            11          dense_45[0][0]                   
__________________________________________________________________________________________________
dense_67 (Dense)                (None, 1)            11          dense_46[0][0]                   
__________________________________________________________________________________________________
dense_68 (Dense)                (None, 1)            11          dense_47[0][0]                   
__________________________________________________________________________________________________
dense_69 (Dense)                (None, 1)            11          dense_48[0][0]                   
__________________________________________________________________________________________________
dense_70 (Dense)                (None, 1)            11          dense_49[0][0]                   
__________________________________________________________________________________________________
dense_71 (Dense)                (None, 1)            11          dense_50[0][0]                   
__________________________________________________________________________________________________
dense_72 (Dense)                (None, 1)            11          dense_51[0][0]                   
__________________________________________________________________________________________________
dense_73 (Dense)                (None, 1)            11          dense_52[0][0]                   
__________________________________________________________________________________________________
dense_74 (Dense)                (None, 1)            11          dense_53[0][0]                   
__________________________________________________________________________________________________
dense_75 (Dense)                (None, 1)            11          dense_54[0][0]                   
__________________________________________________________________________________________________
dense_76 (Dense)                (None, 1)            11          dense_55[0][0]                   
__________________________________________________________________________________________________
dense_77 (Dense)                (None, 1)            11          dense_56[0][0]                   
__________________________________________________________________________________________________
dense_78 (Dense)                (None, 1)            11          dense_57[0][0]                   
__________________________________________________________________________________________________
dense_79 (Dense)                (None, 1)            11          dense_58[0][0]                   
__________________________________________________________________________________________________
dense_80 (Dense)                (None, 1)            11          dense_59[0][0]                   
__________________________________________________________________________________________________
dense_81 (Dense)                (None, 1)            11          dense_60[0][0]                   
__________________________________________________________________________________________________
dense_82 (Dense)                (None, 1)            11          dense_61[0][0]                   
__________________________________________________________________________________________________
dense_83 (Dense)                (None, 1)            11          dense_62[0][0]                   
__________________________________________________________________________________________________
dense_84 (Dense)                (None, 1)            11          dense_63[0][0]                   
__________________________________________________________________________________________________
dense_85 (Dense)                (None, 1)            11          dense_64[0][0]                   
__________________________________________________________________________________________________
concatenate (Concatenate)       (None, 21)           0           dense_65[0][0]                   
                                                                 dense_66[0][0]                   
                                                                 dense_67[0][0]                   
                                                                 dense_68[0][0]                   
                                                                 dense_69[0][0]                   
…
compile model with optimizer:  <tensorflow.python.keras.optimizer_v2.adadelta.Adadelta object at 0x7fa200603588>
Model: "functional_1"
__________________________________________________________________________________________________
Layer (type)                    Output Shape         Param #     Connected to                     
==================================================================================================
inpt (InputLayer)               [(None, 8)]          0                                            
__________________________________________________________________________________________________
dense (Dense)                   (None, 630)          5670        inpt[0][0]                       
__________________________________________________________________________________________________
dense_1 (Dense)                 (None, 315)          198765      dense[0][0]                      
__________________________________________________________________________________________________
dense_2 (Dense)                 (None, 20)           6320        dense_1[0][0]                    
__________________________________________________________________________________________________
dense_3 (Dense)                 (None, 20)           6320        dense_1[0][0]                    
__________________________________________________________________________________________________
dense_4 (Dense)                 (None, 20)           6320        dense_1[0][0]                    
__________________________________________________________________________________________________
dense_5 (Dense)                 (None, 20)           6320        dense_1[0][0]                    
__________________________________________________________________________________________________
dense_6 (Dense)                 (None, 20)           6320        dense_1[0][0]                    
__________________________________________________________________________________________________
dense_7 (Dense)                 (None, 20)           6320        dense_1[0][0]                    
__________________________________________________________________________________________________
dense_8 (Dense)                 (None, 20)           6320        dense_1[0][0]                    
__________________________________________________________________________________________________
dense_9 (Dense)                 (None, 20)           6320        dense_1[0][0]                    
__________________________________________________________________________________________________
dense_10 (Dense)                (None, 20)           6320        dense_1[0][0]                    
__________________________________________________________________________________________________
dense_11 (Dense)                (None, 20)           6320        dense_1[0][0]                    
__________________________________________________________________________________________________
dense_12 (Dense)                (None, 20)           6320        dense_1[0][0]                    
__________________________________________________________________________________________________
dense_13 (Dense)                (None, 20)           6320        dense_1[0][0]                    
__________________________________________________________________________________________________
dense_14 (Dense)                (None, 20)           6320        dense_1[0][0]                    
__________________________________________________________________________________________________
dense_15 (Dense)                (None, 20)           6320        dense_1[0][0]                    
__________________________________________________________________________________________________
dense_16 (Dense)                (None, 20)           6320        dense_1[0][0]                    
__________________________________________________________________________________________________
dense_17 (Dense)                (None, 20)           6320        dense_1[0][0]                    
__________________________________________________________________________________________________
dense_18 (Dense)                (None, 20)           6320        dense_1[0][0]                    
__________________________________________________________________________________________________
dense_19 (Dense)                (None, 20)           6320        dense_1[0][0]                    
__________________________________________________________________________________________________
dense_20 (Dense)                (None, 20)           6320        dense_1[0][0]                    
__________________________________________________________________________________________________
dense_21 (Dense)                (None, 20)           6320        dense_1[0][0]                    
__________________________________________________________________________________________________
dense_22 (Dense)                (None, 20)           6320        dense_1[0][0]                    
__________________________________________________________________________________________________
dense_23 (Dense)                (None, 15)           315         dense_2[0][0]                    
__________________________________________________________________________________________________
dense_24 (Dense)                (None, 15)           315         dense_3[0][0]                    
__________________________________________________________________________________________________
dense_25 (Dense)                (None, 15)           315         dense_4[0][0]                    
__________________________________________________________________________________________________
dense_26 (Dense)                (None, 15)           315         dense_5[0][0]                    
__________________________________________________________________________________________________
dense_27 (Dense)                (None, 15)           315         dense_6[0][0]                    
__________________________________________________________________________________________________
dense_28 (Dense)                (None, 15)           315         dense_7[0][0]                    
__________________________________________________________________________________________________
dense_29 (Dense)                (None, 15)           315         dense_8[0][0]                    
__________________________________________________________________________________________________
dense_30 (Dense)                (None, 15)           315         dense_9[0][0]                    
__________________________________________________________________________________________________
dense_31 (Dense)                (None, 15)           315         dense_10[0][0]                   
__________________________________________________________________________________________________
dense_32 (Dense)                (None, 15)           315         dense_11[0][0]                   
__________________________________________________________________________________________________
dense_33 (Dense)                (None, 15)           315         dense_12[0][0]                   
__________________________________________________________________________________________________
dense_34 (Dense)                (None, 15)           315         dense_13[0][0]                   
__________________________________________________________________________________________________
dense_35 (Dense)                (None, 15)           315         dense_14[0][0]                   
__________________________________________________________________________________________________
dense_36 (Dense)                (None, 15)           315         dense_15[0][0]                   
__________________________________________________________________________________________________
dense_37 (Dense)                (None, 15)           315         dense_16[0][0]                   
__________________________________________________________________________________________________
dense_38 (Dense)                (None, 15)           315         dense_17[0][0]                   
__________________________________________________________________________________________________
dense_39 (Dense)                (None, 15)           315         dense_18[0][0]                   
__________________________________________________________________________________________________
dense_40 (Dense)                (None, 15)           315         dense_19[0][0]                   
__________________________________________________________________________________________________
dense_41 (Dense)                (None, 15)           315         dense_20[0][0]                   
__________________________________________________________________________________________________
dense_42 (Dense)                (None, 15)           315         dense_21[0][0]                   
__________________________________________________________________________________________________
dense_43 (Dense)                (None, 15)           315         dense_22[0][0]                   
__________________________________________________________________________________________________
dense_44 (Dense)                (None, 10)           160         dense_23[0][0]                   
__________________________________________________________________________________________________
dense_45 (Dense)                (None, 10)           160         dense_24[0][0]                   
__________________________________________________________________________________________________
dense_46 (Dense)                (None, 10)           160         dense_25[0][0]                   
__________________________________________________________________________________________________
dense_47 (Dense)                (None, 10)           160         dense_26[0][0]                   
__________________________________________________________________________________________________
dense_48 (Dense)                (None, 10)           160         dense_27[0][0]                   
__________________________________________________________________________________________________
dense_49 (Dense)                (None, 10)           160         dense_28[0][0]                   
__________________________________________________________________________________________________
dense_50 (Dense)                (None, 10)           160         dense_29[0][0]                   
__________________________________________________________________________________________________
dense_51 (Dense)                (None, 10)           160         dense_30[0][0]                   
__________________________________________________________________________________________________
dense_52 (Dense)                (None, 10)           160         dense_31[0][0]                   
__________________________________________________________________________________________________
dense_53 (Dense)                (None, 10)           160         dense_32[0][0]                   
__________________________________________________________________________________________________
dense_54 (Dense)                (None, 10)           160         dense_33[0][0]                   
__________________________________________________________________________________________________
dense_55 (Dense)                (None, 10)           160         dense_34[0][0]                   
__________________________________________________________________________________________________
dense_56 (Dense)                (None, 10)           160         dense_35[0][0]                   
__________________________________________________________________________________________________
dense_57 (Dense)                (None, 10)           160         dense_36[0][0]                   
__________________________________________________________________________________________________
dense_58 (Dense)                (None, 10)           160         dense_37[0][0]                   
__________________________________________________________________________________________________
dense_59 (Dense)                (None, 10)           160         dense_38[0][0]                   
__________________________________________________________________________________________________
dense_60 (Dense)                (None, 10)           160         dense_39[0][0]                   
__________________________________________________________________________________________________
dense_61 (Dense)                (None, 10)           160         dense_40[0][0]                   
__________________________________________________________________________________________________
dense_62 (Dense)                (None, 10)           160         dense_41[0][0]                   
__________________________________________________________________________________________________
dense_63 (Dense)                (None, 10)           160         dense_42[0][0]                   
__________________________________________________________________________________________________
dense_64 (Dense)                (None, 10)           160         dense_43[0][0]                   
__________________________________________________________________________________________________
dense_65 (Dense)                (None, 1)            11          dense_44[0][0]                   
__________________________________________________________________________________________________
dense_66 (Dense)                (None, 1)            11          dense_45[0][0]                   
__________________________________________________________________________________________________
dense_67 (Dense)                (None, 1)            11          dense_46[0][0]                   
__________________________________________________________________________________________________
dense_68 (Dense)                (None, 1)            11          dense_47[0][0]                   
__________________________________________________________________________________________________
dense_69 (Dense)                (None, 1)            11          dense_48[0][0]                   
__________________________________________________________________________________________________
dense_70 (Dense)                (None, 1)            11          dense_49[0][0]                   
__________________________________________________________________________________________________
dense_71 (Dense)                (None, 1)            11          dense_50[0][0]                   
__________________________________________________________________________________________________
dense_72 (Dense)                (None, 1)            11          dense_51[0][0]                   
__________________________________________________________________________________________________
dense_73 (Dense)                (None, 1)            11          dense_52[0][0]                   
__________________________________________________________________________________________________
dense_74 (Dense)                (None, 1)            11          dense_53[0][0]                   
__________________________________________________________________________________________________
dense_75 (Dense)                (None, 1)            11          dense_54[0][0]                   
__________________________________________________________________________________________________
dense_76 (Dense)                (None, 1)            11          dense_55[0][0]                   
__________________________________________________________________________________________________
dense_77 (Dense)                (None, 1)            11          dense_56[0][0]                   
__________________________________________________________________________________________________
dense_78 (Dense)                (None, 1)            11          dense_57[0][0]                   
__________________________________________________________________________________________________
dense_79 (Dense)                (None, 1)            11          dense_58[0][0]                   
__________________________________________________________________________________________________
dense_80 (Dense)                (None, 1)            11          dense_59[0][0]                   
__________________________________________________________________________________________________
dense_81 (Dense)                (None, 1)            11          dense_60[0][0]                   
__________________________________________________________________________________________________
dense_82 (Dense)                (None, 1)            11          dense_61[0][0]                   
__________________________________________________________________________________________________
dense_83 (Dense)                (None, 1)            11          dense_62[0][0]                   
__________________________________________________________________________________________________
dense_84 (Dense)                (None, 1)            11          dense_63[0][0]                   
__________________________________________________________________________________________________
dense_85 (Dense)                (None, 1)            11          dense_64[0][0]                   
__________________________________________________________________________________________________
concatenate (Concatenate)       (None, 21)           0           dense_65[0][0]                   
                                                                 dense_66[0][0]                   
                                                                 dense_67[0][0]                   
                                                                 dense_68[0][0]                   
                                                                 dense_69[0][0]                   
…
compile model with optimizer:  <tensorflow.python.keras.optimizer_v2.adadelta.Adadelta object at 0x7fa2e851f320>
Model: "functional_1"
__________________________________________________________________________________________________
Layer (type)                    Output Shape         Param #     Connected to                     
==================================================================================================
inpt (InputLayer)               [(None, 9)]          0                                            
__________________________________________________________________________________________________
dense (Dense)                   (None, 630)          6300        inpt[0][0]                       
__________________________________________________________________________________________________
dense_1 (Dense)                 (None, 315)          198765      dense[0][0]                      
__________________________________________________________________________________________________
dense_2 (Dense)                 (None, 20)           6320        dense_1[0][0]                    
__________________________________________________________________________________________________
dense_3 (Dense)                 (None, 20)           6320        dense_1[0][0]                    
__________________________________________________________________________________________________
dense_4 (Dense)                 (None, 20)           6320        dense_1[0][0]                    
__________________________________________________________________________________________________
dense_5 (Dense)                 (None, 20)           6320        dense_1[0][0]                    
__________________________________________________________________________________________________
dense_6 (Dense)                 (None, 20)           6320        dense_1[0][0]                    
__________________________________________________________________________________________________
dense_7 (Dense)                 (None, 20)           6320        dense_1[0][0]                    
__________________________________________________________________________________________________
dense_8 (Dense)                 (None, 20)           6320        dense_1[0][0]                    
__________________________________________________________________________________________________
dense_9 (Dense)                 (None, 20)           6320        dense_1[0][0]                    
__________________________________________________________________________________________________
dense_10 (Dense)                (None, 20)           6320        dense_1[0][0]                    
__________________________________________________________________________________________________
dense_11 (Dense)                (None, 20)           6320        dense_1[0][0]                    
__________________________________________________________________________________________________
dense_12 (Dense)                (None, 20)           6320        dense_1[0][0]                    
__________________________________________________________________________________________________
dense_13 (Dense)                (None, 20)           6320        dense_1[0][0]                    
__________________________________________________________________________________________________
dense_14 (Dense)                (None, 20)           6320        dense_1[0][0]                    
__________________________________________________________________________________________________
dense_15 (Dense)                (None, 20)           6320        dense_1[0][0]                    
__________________________________________________________________________________________________
dense_16 (Dense)                (None, 20)           6320        dense_1[0][0]                    
__________________________________________________________________________________________________
dense_17 (Dense)                (None, 20)           6320        dense_1[0][0]                    
__________________________________________________________________________________________________
dense_18 (Dense)                (None, 20)           6320        dense_1[0][0]                    
__________________________________________________________________________________________________
dense_19 (Dense)                (None, 20)           6320        dense_1[0][0]                    
__________________________________________________________________________________________________
dense_20 (Dense)                (None, 20)           6320        dense_1[0][0]                    
__________________________________________________________________________________________________
dense_21 (Dense)                (None, 20)           6320        dense_1[0][0]                    
__________________________________________________________________________________________________
dense_22 (Dense)                (None, 20)           6320        dense_1[0][0]                    
__________________________________________________________________________________________________
dense_23 (Dense)                (None, 15)           315         dense_2[0][0]                    
__________________________________________________________________________________________________
dense_24 (Dense)                (None, 15)           315         dense_3[0][0]                    
__________________________________________________________________________________________________
dense_25 (Dense)                (None, 15)           315         dense_4[0][0]                    
__________________________________________________________________________________________________
dense_26 (Dense)                (None, 15)           315         dense_5[0][0]                    
__________________________________________________________________________________________________
dense_27 (Dense)                (None, 15)           315         dense_6[0][0]                    
__________________________________________________________________________________________________
dense_28 (Dense)                (None, 15)           315         dense_7[0][0]                    
__________________________________________________________________________________________________
dense_29 (Dense)                (None, 15)           315         dense_8[0][0]                    
__________________________________________________________________________________________________
dense_30 (Dense)                (None, 15)           315         dense_9[0][0]                    
__________________________________________________________________________________________________
dense_31 (Dense)                (None, 15)           315         dense_10[0][0]                   
__________________________________________________________________________________________________
dense_32 (Dense)                (None, 15)           315         dense_11[0][0]                   
__________________________________________________________________________________________________
dense_33 (Dense)                (None, 15)           315         dense_12[0][0]                   
__________________________________________________________________________________________________
dense_34 (Dense)                (None, 15)           315         dense_13[0][0]                   
__________________________________________________________________________________________________
dense_35 (Dense)                (None, 15)           315         dense_14[0][0]                   
__________________________________________________________________________________________________
dense_36 (Dense)                (None, 15)           315         dense_15[0][0]                   
__________________________________________________________________________________________________
dense_37 (Dense)                (None, 15)           315         dense_16[0][0]                   
__________________________________________________________________________________________________
dense_38 (Dense)                (None, 15)           315         dense_17[0][0]                   
__________________________________________________________________________________________________
dense_39 (Dense)                (None, 15)           315         dense_18[0][0]                   
__________________________________________________________________________________________________
dense_40 (Dense)                (None, 15)           315         dense_19[0][0]                   
__________________________________________________________________________________________________
dense_41 (Dense)                (None, 15)           315         dense_20[0][0]                   
__________________________________________________________________________________________________
dense_42 (Dense)                (None, 15)           315         dense_21[0][0]                   
__________________________________________________________________________________________________
dense_43 (Dense)                (None, 15)           315         dense_22[0][0]                   
__________________________________________________________________________________________________
dense_44 (Dense)                (None, 10)           160         dense_23[0][0]                   
__________________________________________________________________________________________________
dense_45 (Dense)                (None, 10)           160         dense_24[0][0]                   
__________________________________________________________________________________________________
dense_46 (Dense)                (None, 10)           160         dense_25[0][0]                   
__________________________________________________________________________________________________
dense_47 (Dense)                (None, 10)           160         dense_26[0][0]                   
__________________________________________________________________________________________________
dense_48 (Dense)                (None, 10)           160         dense_27[0][0]                   
__________________________________________________________________________________________________
dense_49 (Dense)                (None, 10)           160         dense_28[0][0]                   
__________________________________________________________________________________________________
dense_50 (Dense)                (None, 10)           160         dense_29[0][0]                   
__________________________________________________________________________________________________
dense_51 (Dense)                (None, 10)           160         dense_30[0][0]                   
__________________________________________________________________________________________________
dense_52 (Dense)                (None, 10)           160         dense_31[0][0]                   
__________________________________________________________________________________________________
dense_53 (Dense)                (None, 10)           160         dense_32[0][0]                   
__________________________________________________________________________________________________
dense_54 (Dense)                (None, 10)           160         dense_33[0][0]                   
__________________________________________________________________________________________________
dense_55 (Dense)                (None, 10)           160         dense_34[0][0]                   
__________________________________________________________________________________________________
dense_56 (Dense)                (None, 10)           160         dense_35[0][0]                   
__________________________________________________________________________________________________
dense_57 (Dense)                (None, 10)           160         dense_36[0][0]                   
__________________________________________________________________________________________________
dense_58 (Dense)                (None, 10)           160         dense_37[0][0]                   
__________________________________________________________________________________________________
dense_59 (Dense)                (None, 10)           160         dense_38[0][0]                   
__________________________________________________________________________________________________
dense_60 (Dense)                (None, 10)           160         dense_39[0][0]                   
__________________________________________________________________________________________________
dense_61 (Dense)                (None, 10)           160         dense_40[0][0]                   
__________________________________________________________________________________________________
dense_62 (Dense)                (None, 10)           160         dense_41[0][0]                   
__________________________________________________________________________________________________
dense_63 (Dense)                (None, 10)           160         dense_42[0][0]                   
__________________________________________________________________________________________________
dense_64 (Dense)                (None, 10)           160         dense_43[0][0]                   
__________________________________________________________________________________________________
dense_65 (Dense)                (None, 1)            11          dense_44[0][0]                   
__________________________________________________________________________________________________
dense_66 (Dense)                (None, 1)            11          dense_45[0][0]                   
__________________________________________________________________________________________________
dense_67 (Dense)                (None, 1)            11          dense_46[0][0]                   
__________________________________________________________________________________________________
dense_68 (Dense)                (None, 1)            11          dense_47[0][0]                   
__________________________________________________________________________________________________
dense_69 (Dense)                (None, 1)            11          dense_48[0][0]                   
__________________________________________________________________________________________________
dense_70 (Dense)                (None, 1)            11          dense_49[0][0]                   
__________________________________________________________________________________________________
dense_71 (Dense)                (None, 1)            11          dense_50[0][0]                   
__________________________________________________________________________________________________
dense_72 (Dense)                (None, 1)            11          dense_51[0][0]                   
__________________________________________________________________________________________________
dense_73 (Dense)                (None, 1)            11          dense_52[0][0]                   
__________________________________________________________________________________________________
dense_74 (Dense)                (None, 1)            11          dense_53[0][0]                   
__________________________________________________________________________________________________
dense_75 (Dense)                (None, 1)            11          dense_54[0][0]                   
__________________________________________________________________________________________________
dense_76 (Dense)                (None, 1)            11          dense_55[0][0]                   
__________________________________________________________________________________________________
dense_77 (Dense)                (None, 1)            11          dense_56[0][0]                   
__________________________________________________________________________________________________
dense_78 (Dense)                (None, 1)            11          dense_57[0][0]                   
__________________________________________________________________________________________________
dense_79 (Dense)                (None, 1)            11          dense_58[0][0]                   
__________________________________________________________________________________________________
dense_80 (Dense)                (None, 1)            11          dense_59[0][0]                   
__________________________________________________________________________________________________
dense_81 (Dense)                (None, 1)            11          dense_60[0][0]                   
__________________________________________________________________________________________________
dense_82 (Dense)                (None, 1)            11          dense_61[0][0]                   
__________________________________________________________________________________________________
dense_83 (Dense)                (None, 1)            11          dense_62[0][0]                   
__________________________________________________________________________________________________
dense_84 (Dense)                (None, 1)            11          dense_63[0][0]                   
__________________________________________________________________________________________________
dense_85 (Dense)                (None, 1)            11          dense_64[0][0]                   
__________________________________________________________________________________________________
concatenate (Concatenate)       (None, 21)           0           dense_65[0][0]                   
                                                                 dense_66[0][0]                   
                                                                 dense_67[0][0]                   
                                                                 dense_68[0][0]                   
                                                                 dense_69[0][0]                   
…
